(10384, 251)
(10384, 250)
(10384,)
(1000, 251)
(1000, 250)
(1000,)
shape of y_train and y_test before categorical
(10384,)
(1000,)
_________________________________________________________________
Layer (type)                 Output Shape              Param #   
=================================================================
dense_1 (Dense)              (None, 100)               25100     
_________________________________________________________________
activation_1 (Activation)    (None, 100)               0         
_________________________________________________________________
dropout_1 (Dropout)          (None, 100)               0         
_________________________________________________________________
dense_2 (Dense)              (None, 1)                 101       
_________________________________________________________________
activation_2 (Activation)    (None, 1)                 0         
=================================================================
Total params: 25,201
Trainable params: 25,201
Non-trainable params: 0
_________________________________________________________________
None
Train on 8307 samples, validate on 2077 samples
Epoch 1/100

 100/8307 [..............................] - ETA: 18s - loss: 1.3461 - acc: 0.3900
2800/8307 [=========>....................] - ETA: 0s - loss: 0.8906 - acc: 0.5371 
…
