(2081, 408)
(2081, 407)
class labels
{0.0, 1.0}
(521, 408)
(521, 407)
(521,)
_________________________________________________________________
Layer (type)                 Output Shape              Param #   
=================================================================
dense_1 (Dense)              (None, 50)                20400     
_________________________________________________________________
activation_1 (Activation)    (None, 50)                0         
_________________________________________________________________
dropout_1 (Dropout)          (None, 50)                0         
_________________________________________________________________
dense_2 (Dense)              (None, 1)                 51        
_________________________________________________________________
activation_2 (Activation)    (None, 1)                 0         
=================================================================
Total params: 20,451
Trainable params: 20,451
Non-trainable params: 0
_________________________________________________________________
None

Epoch 00001: val_loss improved from inf to 1.92129, saving model to 1_50_best_model.hdf5

Epoch 00002: val_loss improved from 1.92129 to 1.30957, saving model to 1_50_best_model.hdf5
…
average testing metrics
[0.91822583 0.87082534 0.75860621 0.88454572 0.87428044 0.86994998]
std testing metrics
[0.03669077 0.03065073 0.04607774 0.01742252 0.02894255 0.03208456]
End of this run.
########################################################################################################
(2081, 408)
(2081, 407)
class labels
{0.0, 1.0}
(521, 408)
(521, 407)
(521,)
_________________________________________________________________
Layer (type)                 Output Shape              Param #   
=================================================================
dense_1 (Dense)              (None, 50)                20400     
_________________________________________________________________
activation_1 (Activation)    (None, 50)                0         
_________________________________________________________________
dropout_1 (Dropout)          (None, 50)                0         
_________________________________________________________________
dense_2 (Dense)              (None, 50)                2550      
_________________________________________________________________
activation_2 (Activation)    (None, 50)                0         
_________________________________________________________________
dropout_2 (Dropout)          (None, 50)                0         
_________________________________________________________________
dense_3 (Dense)              (None, 1)                 51        
_________________________________________________________________
activation_3 (Activation)    (None, 1)                 0         
=================================================================
Total params: 23,001
Trainable params: 23,001
Non-trainable params: 0
_________________________________________________________________
None

Epoch 00001: val_loss improved from inf to 1.22117, saving model to 2_50_best_model.hdf5

Epoch 00002: val_loss improved from 1.22117 to 0.97556, saving model to 2_50_best_model.hdf5
…
average testing metrics
[0.86335941 0.83397313 0.70564115 0.86648162 0.83983247 0.83139181]
std testing metrics
[0.03856989 0.02581199 0.03555784 0.01097445 0.02433163 0.0276457 ]
End of this run.
########################################################################################################
(2081, 408)
(2081, 407)
class labels
{0.0, 1.0}
(521, 408)
(521, 407)
(521,)
_________________________________________________________________
Layer (type)                 Output Shape              Param #   
=================================================================
dense_1 (Dense)              (None, 100)               40800     
_________________________________________________________________
activation_1 (Activation)    (None, 100)               0         
_________________________________________________________________
dropout_1 (Dropout)          (None, 100)               0         
_________________________________________________________________
dense_2 (Dense)              (None, 1)                 101       
_________________________________________________________________
activation_2 (Activation)    (None, 1)                 0         
=================================================================
Total params: 40,901
Trainable params: 40,901
Non-trainable params: 0
_________________________________________________________________
None

Epoch 00001: val_loss improved from inf to 1.44551, saving model to 1_100_best_model.hdf5

Epoch 00002: val_loss improved from 1.44551 to 1.14308, saving model to 1_100_best_model.hdf5
…
average testing metrics
[0.93302952 0.87619962 0.76346396 0.88440848 0.87909004 0.87592426]
std testing metrics
[0.01178074 0.01552806 0.0267228  0.01223149 0.01478704 0.01573827]
End of this run.
########################################################################################################
(2081, 408)
(2081, 407)
class labels
{0.0, 1.0}
(521, 408)
(521, 407)
(521,)
_________________________________________________________________
Layer (type)                 Output Shape              Param #   
=================================================================
dense_1 (Dense)              (None, 100)               40800     
_________________________________________________________________
activation_1 (Activation)    (None, 100)               0         
_________________________________________________________________
dropout_1 (Dropout)          (None, 100)               0         
_________________________________________________________________
dense_2 (Dense)              (None, 100)               10100     
_________________________________________________________________
activation_2 (Activation)    (None, 100)               0         
_________________________________________________________________
dropout_2 (Dropout)          (None, 100)               0         
_________________________________________________________________
dense_3 (Dense)              (None, 1)                 101       
_________________________________________________________________
activation_3 (Activation)    (None, 1)                 0         
=================================================================
Total params: 51,001
Trainable params: 51,001
Non-trainable params: 0
_________________________________________________________________
None

Epoch 00001: val_loss improved from inf to 1.25559, saving model to 2_100_best_model.hdf5

Epoch 00002: val_loss improved from 1.25559 to 1.17738, saving model to 2_100_best_model.hdf5
…
average testing metrics
[0.88607306 0.8403071  0.70874944 0.86445215 0.84477417 0.83839127]
std testing metrics
[0.04128172 0.02593374 0.03787138 0.01541263 0.02444609 0.02754672]
End of this run.
########################################################################################################
(2081, 408)
(2081, 407)
class labels
{0.0, 1.0}
(521, 408)
(521, 407)
(521,)
_________________________________________________________________
Layer (type)                 Output Shape              Param #   
=================================================================
dense_1 (Dense)              (None, 200)               81600     
_________________________________________________________________
activation_1 (Activation)    (None, 200)               0         
_________________________________________________________________
dropout_1 (Dropout)          (None, 200)               0         
_________________________________________________________________
dense_2 (Dense)              (None, 1)                 201       
_________________________________________________________________
activation_2 (Activation)    (None, 1)                 0         
=================================================================
Total params: 81,801
Trainable params: 81,801
Non-trainable params: 0
_________________________________________________________________
None

Epoch 00001: val_loss improved from inf to 2.31717, saving model to 1_200_best_model.hdf5

Epoch 00002: val_loss improved from 2.31717 to 1.54677, saving model to 1_200_best_model.hdf5
…
average testing metrics
[0.88736015 0.84357006 0.7207278  0.87262802 0.8487786  0.84111357]
std testing metrics
[0.05746039 0.03851467 0.05465207 0.01797282 0.03613447 0.04069241]
End of this run.
########################################################################################################
(2081, 408)
(2081, 407)
class labels
{0.0, 1.0}
(521, 408)
(521, 407)
(521,)
_________________________________________________________________
Layer (type)                 Output Shape              Param #   
=================================================================
dense_1 (Dense)              (None, 200)               81600     
_________________________________________________________________
activation_1 (Activation)    (None, 200)               0         
_________________________________________________________________
dropout_1 (Dropout)          (None, 200)               0         
_________________________________________________________________
dense_2 (Dense)              (None, 200)               40200     
_________________________________________________________________
activation_2 (Activation)    (None, 200)               0         
_________________________________________________________________
dropout_2 (Dropout)          (None, 200)               0         
_________________________________________________________________
dense_3 (Dense)              (None, 1)                 201       
_________________________________________________________________
activation_3 (Activation)    (None, 1)                 0         
=================================================================
Total params: 122,001
Trainable params: 122,001
Non-trainable params: 0
_________________________________________________________________
None

Epoch 00001: val_loss improved from inf to 1.38452, saving model to 2_200_best_model.hdf5

Epoch 00002: val_loss improved from 1.38452 to 1.12354, saving model to 2_200_best_model.hdf5
…
[0.83585092 0.81381958 0.67564681 0.85640588 0.82039779 0.80980775]
standard devidation testing metrics
[0.04123384 0.02395775 0.03460686 0.01420071 0.02245472 0.02563549]
End of this run.
########################################################################################################
(5569, 386)
(5569, 385)
class labels
{0.0, 1.0}
(1393, 386)
(1393, 385)
(1393,)
_________________________________________________________________
Layer (type)                 Output Shape              Param #   
=================================================================
dense_1 (Dense)              (None, 50)                19300     
_________________________________________________________________
activation_1 (Activation)    (None, 50)                0         
_________________________________________________________________
dropout_1 (Dropout)          (None, 50)                0         
_________________________________________________________________
dense_2 (Dense)              (None, 1)                 51        
_________________________________________________________________
activation_2 (Activation)    (None, 1)                 0         
=================================================================
Total params: 19,351
Trainable params: 19,351
Non-trainable params: 0
_________________________________________________________________
None

Epoch 00001: val_loss improved from inf to 0.70361, saving model to 1_50_best_model.hdf5

Epoch 00002: val_loss improved from 0.70361 to 0.65166, saving model to 1_50_best_model.hdf5
…
average testing metrics
[0.73458304 0.67437186 0.35953285 0.68536978 0.67445188 0.66938934]
std testing metrics
[0.00689323 0.0097229  0.01303124 0.00526555 0.00969503 0.01374101]
End of this run.
########################################################################################################
(5569, 386)
(5569, 385)
class labels
{0.0, 1.0}
(1393, 386)
(1393, 385)
(1393,)
_________________________________________________________________
Layer (type)                 Output Shape              Param #   
=================================================================
dense_1 (Dense)              (None, 50)                19300     
_________________________________________________________________
activation_1 (Activation)    (None, 50)                0         
_________________________________________________________________
dropout_1 (Dropout)          (None, 50)                0         
_________________________________________________________________
dense_2 (Dense)              (None, 50)                2550      
_________________________________________________________________
activation_2 (Activation)    (None, 50)                0         
_________________________________________________________________
dropout_2 (Dropout)          (None, 50)                0         
_________________________________________________________________
dense_3 (Dense)              (None, 1)                 51        
_________________________________________________________________
activation_3 (Activation)    (None, 1)                 0         
=================================================================
Total params: 21,901
Trainable params: 21,901
Non-trainable params: 0
_________________________________________________________________
None

Epoch 00001: val_loss improved from inf to 0.68334, saving model to 2_50_best_model.hdf5

Epoch 00002: val_loss improved from 0.68334 to 0.66422, saving model to 2_50_best_model.hdf5
…
average testing metrics
[0.71155568 0.66058866 0.33879009 0.67958513 0.66066857 0.65192072]
std testing metrics
[0.02428982 0.01108321 0.0177182  0.01964336 0.01104441 0.02127542]
End of this run.
########################################################################################################
(5569, 386)
(5569, 385)
class labels
{0.0, 1.0}
(1393, 386)
(1393, 385)
(1393,)
_________________________________________________________________
Layer (type)                 Output Shape              Param #   
=================================================================
dense_1 (Dense)              (None, 100)               38600     
_________________________________________________________________
activation_1 (Activation)    (None, 100)               0         
_________________________________________________________________
dropout_1 (Dropout)          (None, 100)               0         
_________________________________________________________________
dense_2 (Dense)              (None, 1)                 101       
_________________________________________________________________
activation_2 (Activation)    (None, 1)                 0         
=================================================================
Total params: 38,701
Trainable params: 38,701
Non-trainable params: 0
_________________________________________________________________
None

Epoch 00001: val_loss improved from inf to 0.70851, saving model to 1_100_best_model.hdf5

Epoch 00002: val_loss improved from 0.70851 to 0.65866, saving model to 1_100_best_model.hdf5
…
average testing metrics
[0.73931206 0.67681263 0.36324363 0.68657104 0.67688554 0.67265912]
std testing metrics
[0.00649554 0.00840129 0.01756188 0.01079412 0.0083967  0.00958248]
End of this run.
########################################################################################################
(5569, 386)
(5569, 385)
class labels
{0.0, 1.0}
(1393, 386)
(1393, 385)
(1393,)
_________________________________________________________________
Layer (type)                 Output Shape              Param #   
=================================================================
dense_1 (Dense)              (None, 100)               38600     
_________________________________________________________________
activation_1 (Activation)    (None, 100)               0         
_________________________________________________________________
dropout_1 (Dropout)          (None, 100)               0         
_________________________________________________________________
dense_2 (Dense)              (None, 100)               10100     
_________________________________________________________________
activation_2 (Activation)    (None, 100)               0         
_________________________________________________________________
dropout_2 (Dropout)          (None, 100)               0         
_________________________________________________________________
dense_3 (Dense)              (None, 1)                 101       
_________________________________________________________________
activation_3 (Activation)    (None, 1)                 0         
=================================================================
Total params: 48,801
Trainable params: 48,801
Non-trainable params: 0
_________________________________________________________________
None

Epoch 00001: val_loss improved from inf to 0.67367, saving model to 2_100_best_model.hdf5

Epoch 00002: val_loss improved from 0.67367 to 0.65161, saving model to 2_100_best_model.hdf5
…
average testing metrics
[0.7297287  0.66625987 0.34627023 0.68044638 0.66633953 0.65985906]
std testing metrics
[0.00812945 0.0076274  0.01743494 0.01363196 0.00762779 0.01065787]
End of this run.
########################################################################################################
(5569, 386)
(5569, 385)
class labels
{0.0, 1.0}
(1393, 386)
(1393, 385)
(1393,)
_________________________________________________________________
Layer (type)                 Output Shape              Param #   
=================================================================
dense_1 (Dense)              (None, 200)               77200     
_________________________________________________________________
activation_1 (Activation)    (None, 200)               0         
_________________________________________________________________
dropout_1 (Dropout)          (None, 200)               0         
_________________________________________________________________
dense_2 (Dense)              (None, 1)                 201       
_________________________________________________________________
activation_2 (Activation)    (None, 1)                 0         
=================================================================
Total params: 77,401
Trainable params: 77,401
Non-trainable params: 0
_________________________________________________________________
None

Epoch 00001: val_loss improved from inf to 0.97749, saving model to 1_200_best_model.hdf5

Epoch 00002: val_loss improved from 0.97749 to 0.67061, saving model to 1_200_best_model.hdf5
…
average testing metrics
[0.72042518 0.66360373 0.34760109 0.684919   0.66369395 0.65384973]
std testing metrics
[0.01494505 0.01404983 0.02730241 0.01758766 0.01405323 0.01849898]
End of this run.
########################################################################################################
(5707, 112)
(5707, 111)
class labels
{0.0, 1.0}
(1427, 112)
(1427, 111)
(1427,)
_________________________________________________________________
Layer (type)                 Output Shape              Param #   
=================================================================
dense_1 (Dense)              (None, 50)                5600      
_________________________________________________________________
activation_1 (Activation)    (None, 50)                0         
_________________________________________________________________
dropout_1 (Dropout)          (None, 50)                0         
_________________________________________________________________
dense_2 (Dense)              (None, 1)                 51        
_________________________________________________________________
activation_2 (Activation)    (None, 1)                 0         
=================================================================
Total params: 5,651
Trainable params: 5,651
Non-trainable params: 0
_________________________________________________________________
None

Epoch 00001: val_loss improved from inf to 0.79541, saving model to 1_50_best_model.hdf5

Epoch 00002: val_loss improved from 0.79541 to 0.74778, saving model to 1_50_best_model.hdf5

Epoch 00003: val_loss improved from 0.74778 to 0.69728, saving model to 1_50_best_model.hdf5
…
average testing metrics
[0.71012957 0.65487036 0.33306368 0.67408254 0.65935237 0.64879401]
std testing metrics
[0.00480877 0.00616718 0.0095612  0.0052428  0.00570457 0.00817145]
End of this run.
########################################################################################################
(5707, 112)
(5707, 111)
class labels
{0.0, 1.0}
(1427, 112)
(1427, 111)
(1427,)
_________________________________________________________________
Layer (type)                 Output Shape              Param #   
=================================================================
dense_1 (Dense)              (None, 50)                5600      
_________________________________________________________________
activation_1 (Activation)    (None, 50)                0         
_________________________________________________________________
dropout_1 (Dropout)          (None, 50)                0         
_________________________________________________________________
dense_2 (Dense)              (None, 50)                2550      
_________________________________________________________________
activation_2 (Activation)    (None, 50)                0         
_________________________________________________________________
dropout_2 (Dropout)          (None, 50)                0         
_________________________________________________________________
dense_3 (Dense)              (None, 1)                 51        
_________________________________________________________________
activation_3 (Activation)    (None, 1)                 0         
=================================================================
Total params: 8,201
Trainable params: 8,201
Non-trainable params: 0
_________________________________________________________________
None

Epoch 00001: val_loss improved from inf to 0.67695, saving model to 2_50_best_model.hdf5

Epoch 00002: val_loss improved from 0.67695 to 0.67429, saving model to 2_50_best_model.hdf5

Epoch 00003: val_loss improved from 0.67429 to 0.65892, saving model to 2_50_best_model.hdf5
…
average testing metrics
[0.71805542 0.65423966 0.33720249 0.67869396 0.6592051  0.64608254]
std testing metrics
[0.00859411 0.00937148 0.01218493 0.0067036  0.00841963 0.01311304]
End of this run.
########################################################################################################
(5707, 112)
(5707, 111)
class labels
{0.0, 1.0}
(1427, 112)
(1427, 111)
(1427,)
_________________________________________________________________
Layer (type)                 Output Shape              Param #   
=================================================================
dense_1 (Dense)              (None, 100)               11200     
_________________________________________________________________
activation_1 (Activation)    (None, 100)               0         
_________________________________________________________________
dropout_1 (Dropout)          (None, 100)               0         
_________________________________________________________________
dense_2 (Dense)              (None, 1)                 101       
_________________________________________________________________
activation_2 (Activation)    (None, 1)                 0         
=================================================================
Total params: 11,301
Trainable params: 11,301
Non-trainable params: 0
_________________________________________________________________
None

Epoch 00001: val_loss improved from inf to 0.73673, saving model to 1_100_best_model.hdf5

Epoch 00002: val_loss improved from 0.73673 to 0.70746, saving model to 1_100_best_model.hdf5
…
average testing metrics
[0.71337167 0.65543097 0.33403287 0.6747266  0.65974441 0.64924095]
std testing metrics
[0.00493464 0.00958828 0.01746868 0.01003638 0.0092009  0.0121003 ]
End of this run.
########################################################################################################
(5707, 112)
(5707, 111)
class labels
{0.0, 1.0}
(1427, 112)
(1427, 111)
(1427,)
_________________________________________________________________
Layer (type)                 Output Shape              Param #   
=================================================================
dense_1 (Dense)              (None, 100)               11200     
_________________________________________________________________
activation_1 (Activation)    (None, 100)               0         
_________________________________________________________________
dropout_1 (Dropout)          (None, 100)               0         
_________________________________________________________________
dense_2 (Dense)              (None, 100)               10100     
_________________________________________________________________
activation_2 (Activation)    (None, 100)               0         
_________________________________________________________________
dropout_2 (Dropout)          (None, 100)               0         
_________________________________________________________________
dense_3 (Dense)              (None, 1)                 101       
_________________________________________________________________
activation_3 (Activation)    (None, 1)                 0         
=================================================================
Total params: 21,401
Trainable params: 21,401
Non-trainable params: 0
_________________________________________________________________
None

Epoch 00001: val_loss improved from inf to 0.66696, saving model to 2_100_best_model.hdf5

Epoch 00002: val_loss improved from 0.66696 to 0.66266, saving model to 2_100_best_model.hdf5
…
average testing metrics
[0.71583874 0.65522074 0.33375213 0.67445019 0.65967559 0.64918518]
std testing metrics
[0.00599782 0.00838    0.01701693 0.00975151 0.00819748 0.0094775 ]
End of this run.
########################################################################################################
(5707, 112)
(5707, 111)
class labels
{0.0, 1.0}
(1427, 112)
(1427, 111)
(1427,)
_________________________________________________________________
Layer (type)                 Output Shape              Param #   
=================================================================
dense_1 (Dense)              (None, 200)               22400     
_________________________________________________________________
activation_1 (Activation)    (None, 200)               0         
_________________________________________________________________
dropout_1 (Dropout)          (None, 200)               0         
_________________________________________________________________
dense_2 (Dense)              (None, 1)                 201       
_________________________________________________________________
activation_2 (Activation)    (None, 1)                 0         
=================================================================
Total params: 22,601
Trainable params: 22,601
Non-trainable params: 0
_________________________________________________________________
None

Epoch 00001: val_loss improved from inf to 0.73420, saving model to 1_200_best_model.hdf5

Epoch 00002: val_loss improved from 0.73420 to 0.68961, saving model to 1_200_best_model.hdf5
…
average testing metrics
[0.71211867 0.65669236 0.33048487 0.67046367 0.66025451 0.65259762]
std testing metrics
[0.00522224 0.00804178 0.01656639 0.01011759 0.00783861 0.00961451]
End of this run.
########################################################################################################
(5707, 112)
(5707, 111)
class labels
{0.0, 1.0}
(1427, 112)
(1427, 111)
(1427,)
_________________________________________________________________
Layer (type)                 Output Shape              Param #   
=================================================================
dense_1 (Dense)              (None, 200)               22400     
_________________________________________________________________
activation_1 (Activation)    (None, 200)               0         
_________________________________________________________________
dropout_1 (Dropout)          (None, 200)               0         
_________________________________________________________________
dense_2 (Dense)              (None, 200)               40200     
_________________________________________________________________
activation_2 (Activation)    (None, 200)               0         
_________________________________________________________________
dropout_2 (Dropout)          (None, 200)               0         
_________________________________________________________________
dense_3 (Dense)              (None, 1)                 201       
_________________________________________________________________
activation_3 (Activation)    (None, 1)                 0         
=================================================================
Total params: 62,801
Trainable params: 62,801
Non-trainable params: 0
_________________________________________________________________
None

Epoch 00001: val_loss improved from inf to 0.67132, saving model to 2_200_best_model.hdf5

Epoch 00002: val_loss improved from 0.67132 to 0.64388, saving model to 2_200_best_model.hdf5
…
